pytorch/Recurrent_NN/weights.pth (torch, 110175 bytes, 4 tensors)

i2o.weight f4 [18, 185]
0.45890784 1.0102384 -0.030192094 0.780537 -0.9054083 0.67613393 -0.30076966 0.5536323
0.4039622 -0.07620959 -0.49041596 -0.36110413 0.49046847 -0.8380593 -0.8517199 -0.13565764
-0.035915095 0.6102107 0.25631142 -0.45823953 -0.49048102 -0.24302892 -0.11427345 -0.068514206
0.14576301 0.012961534 0.0011647418 -0.02412916 0.036282375 -0.033646945 0.050773844 -0.069388345
0.049114943 -0.048518308 0.06930889 -0.070447564 0.06394917 -0.065217234 0.04341834 -0.06518078
0.027467564 -0.06630543 -0.00940229 0.04390517 0.059714526 -0.00825493 0.018416204 0.03196343
0.02511394 -0.017743558 -0.00665348 0.05813478 -0.18774028 -0.0069498494 -0.04082737 0.038478777
-0.004591927 -0.55422837 -0.029776726 -0.035369847 -0.08947376 -0.12904666 0.021981556 -0.086227514
-0.12068705 0.020921662 0.1808032 0.24518709 0.038434226 0.41224176 -0.19010383 0.13544177
-0.0568313 -0.0768961 -0.10869397 0.06867796 -0.25096187 0.089429 -0.2235201 -0.34173024
0.31228107 -0.07064338 -0.14987515 -0.22501166 -0.26684397 -0.4249916 0.3990959 0.23736459
-0.14528951 -0.24218339 -0.007150629 -0.22537395 -0.41815844 0.09670397 -0.07986225 0.35539258
0.009163886 -0.022447893 0.035960145 0.07175263 -0.33817956 -0.12488526 -0.40069288 0.050912283
-0.11470567 -0.18264541 0.039304864 -0.25079018 -0.20125864 -0.0734278 0.16348161 -0.33411267
-0.22231585 -0.09799856 -0.15455255 0.19194418 -0.092976585 0.025677677 0.44594413 -0.22501433
-0.15015903 -0.35683334 -0.028030798 0.0047548586 -0.08934261 -0.11661103 0.11602801 -0.22301888
0.057016466 0.34135994 -0.09741072 0.4821337 -0.16572504 -0.41928923 0.1218958 0.011612224
0.24167776 0.16042028 -0.142915 0.1778089 0.4231106 0.14198026 -0.01884006 0.20628199
0.06491133 0.09546219 0.35830164 0.0068152333 0.3483763 0.058019355 -0.11876041 -0.07107585
-0.4314419 0.03449157 -0.020163655 0.021115921 0.15253784 -0.032376703 0.30780196 -0.2747587
0.15457264 0.08859894 -0.17484207 -0.32968166 -0.034804843 -0.18081656 0.20684229 -0.32766354
-0.00812148 -0.28053042 0.08049503 0.03151991 0.08006264 -0.062286235 0.10516182 0.4146116
-0.18819177 -0.01408491 0.19320233 -0.09711463 0.10740243 0.10339236 0.07904465 -0.022265863
-0.022694053 -0.311322 -0.019708907 -0.22227299 -0.22861573 0.24629267 -0.06879512 1.5819088
-0.206402 0.52585787 -0.07121204 -0.22545339 -0.4035907 -0.29654574 0.45548368 0.33586574
0.010240301 -0.056388147 -0.21812883 -0.6036076 -0.16342579 0.51041657 -0.012622273 0.40408993
-0.023742653 -0.37716147 -0.24720784 0.05014328 -0.016861005 -0.053022936 0.0625937 -0.03435358
0.024955839 0.040409617 0.006576225 0.03880261 -0.009859212 -0.05630075 -0.045933113 0.00087584555
0.054250136 -0.02397083 -0.0162278 0.032819778 -0.0077337995 0.06936802 0.002250813 -0.038967654
-0.0026709512 -0.04810829 0.025952905 -0.008383781 0.05310169 -0.024781266 0.038405307 -0.03969021
0.051442094 0.0131251365 0.20297791 -0.33199298 0.45855814 0.15047148 0.21870418 -0.11188294
0.3426888 -0.21970956 -0.3465329 0.3045153 -0.17948341 -0.33589187 -0.35405898 -0.028027749
00000000: f8f5 ea3e 7e4f 813f 6955 f7bc 46d1 473f
00000010: d7c8 67bf 1d17 2d3f 7bfe 99be d9ba 0d3f
00000020: 22d4 ce3e c613 9cbd cd17 fbbe a4e2 b8be
00000030: af1e fb3e 0e8b 56bf 510a 5abf d6e9 0abe
00000040: b51b 13bd c536 1c3f 403b 833e 5f9e eabe
00000050: 5420 fbbe 93dc 78be 3308 eabd 2d51 8cbd
00000060: e642 153e 9d5c 543c 40aa 983a 84aa c5bc
00000070: d49c 143d 61d1 09bd 3cf8 4f3d 7a1b 8ebd
00000080: c02c 493d 22bb 46bd d2f1 8d3d d046 90bd
00000090: c8f7 823d 9d90 85bd 6ed7 313d 807d 85bd
000000a0: a803 e13c 24cb 87bd 100c 1abc e8d5 333d
000000b0: 3897 743d b03f 07bc 94dd 963c 16ec 023d
000000c0: c0bb cd3c f05a 91bc 7005 dabb bc1e 6e3d
000000d0: fd3e 40be 90bb e3bb 9a3a 27bd ec9b 1d3d
000000e0: e077 96bb e9e1 0dbf 52ee f3bc f9df 10bd
000000f0: 053e b7bd cf24 04be aa12 b43c 0d98 b0bd
00000100: c62a f7bd e863 ab3c 7924 393e 5312 7b3e
00000110: 356d 1d3d 5a11 d33e 94aa 42be 3fb1 0a3e
00000120: f0c7 68bd b47b 9dbd f29a debd 08a7 8c3d
00000130: 137e 80be 8d26 b73d 74e2 64be 44f7 aebe
00000140: 4ee3 9f3e 7aad 90bd df78 19be 7569 66be
00000150: c69f 88be 8098 d9be 4c56 cc3e b40f 733e
00000160: c6c6 14be ecfe 77be d34f eabb 6ec8 66be
00000170: dd18 d6be bb0c c63d d28e a3bd 04f6 b53e
00000180: 2024 163c a5e4 b7bc f24a 133d 0bf3 923d
00000190: df25 adbe d8c3 ffbd 9e27 cdbe 6689 503d
000001a0: ceea eabd 6607 3bbe 23fe 203d 9267 80be
000001b0: bf16 4ebe 5061 96bd b967 273e d110 abbe
000001c0: c4a6 63be 78b3 c8bd 0643 1ebe 048d 443e
000001d0: 826a bebd fe59 d23c ca52 e43e 286a 66be
000001e0: 4ac3 19be dcb2 b6be d8a0 e5bc a5ce 9b3b
000001f0: 42f9 b6bd c4d1 eebd 18a0 ed3d 105f 64be
00000200: 198a 693d bbc6 ae3e 467f c7bd 3ada f63e
00000210: d3b3 29be 14ad d6be 81a4 f93d 3341 3e3c
00000220: 607a 773e 3745 243e 4f58 12be 8913 363e
00000230: f4a1 d83e 4663 113e 7856 9abc 963b 533e
00000240: 3bf0 843d ae81 c33d 5073 b73e 5252 df3b
00000250: 615e b23e b4a5 6d3d a838 f3bd 3790 91bd
00000260: f4e5 dcbe 0847 0d3d 402e a5bc 4cfb ac3c
00000270: e132 1c3e 6f9d 04bd 3898 9d3e 2cad 8cbe
00000280: 4a48 1e3e 5c73 b53d cd09 33be 09cc a8be
00000290: 868f 0ebd fa27 39be 77ce 533e 84c3 a7be
000002a0: f50f 05bc afa1 8fbe 94da a43d 051b 013d
000002b0: e2f7 a33d da1f 7fbd 155f d73d f947 d43e
000002c0: 58b5 40be 65c4 66bc d5d6 453e 09e4 c6bd
000002d0: cef5 db3d 60bf d33d 29e2 a13d e666 b6bc
000002e0: e1e8 b9bc 9965 9fbe 9374 a1bc 889b 63be
000002f0: 3e1a 6abe 2534 7c3e 75e4 8cbd fd7b ca3f
00000300: 0c5b 53be 9f9e 063f 9ed7 91bd 41dd 66be
00000310: 71a3 cebe d8d4 97be 2835 e93e 98f6 ab3e
00000320: efc6 273c 42f7 66bd 2a5d 5fbe 0786 1abf
00000330: 1759 27be a9aa 023f a6cd 4ebc e0e4 ce3e
00000340: f47f c2bc 4f1b c1be 0d24 7dbe 0a63 4d3d
00000350: 1720 8abc 942e 59bd 2031 803d 57b6 0cbd
00000360: 3070 cc3c 8e84 253d 607d d73b 7cef 1e3d
00000370: 8888 21bc 9d9b 66bd 5c24 3cbd 0099 653a
00000380: 6435 5e3d 795e c4bc 2af0 84bc 086e 063d
00000390: d06b fdbb d210 8e3d 6082 133b 8c9c 1fbd
000003a0: 200b 2fbb 330d 45bd 309b d43c 205c 09bc
000003b0: 2881 593d 1502 cbbc e24e 1d3d 3492 22bd
000003c0: f2b4 523d d00a 573c 71d9 4f3e fcfa a9be
000003d0: 22c8 ea3e 3215 1a3e fdf3 5f3e e222 e5bd
000003e0: e874 af3e 8bfb 60be c36c b1be 6ee9 9b3e
000003f0: 80ca 37be 05fa abbe 3847 b5be 739a e5bc

i2o.bias f4 [18]
0.025455143 0.17379855 0.18468148 0.041788224 0.5413196 0.13965018 0.4224192 -1.0027976
0.015596609 -0.48239097 -0.29158443 0.79750985 -0.38154015 -0.5013157 0.026577633 -0.032096118
-0.14153369 0.5056246
00000000: 4e87 d03c 3ff8 313e 241d 3d3e 212a 2b3d
00000010: ec93 0a3f 7500 0f3e 5447 d83e ac5b 80bf
00000020: eb88 7f3c f3fb f6be 8e4a 95be 9b29 4c3f
00000030: 3b59 c3be 3a56 00bf 56b9 d93c 3877 03bd
00000040: 35ee 10be 9d70 013f

i2h.weight f4 [128, 185]
-0.026566777 -0.080588646 0.022401357 0.105275296 -0.092593335 -0.056742117 -0.07968511 0.21024615
-0.037607934 -0.110850826 0.20116031 0.03005435 0.002206354 0.29338154 -0.09453031 -0.01403305
-0.076214254 -0.01928512 0.117862985 0.0535581 -0.031544775 -0.018398644 0.045214545 -0.037404895
0.12181931 -0.0012505827 -0.039022673 0.1269455 0.057560753 -0.15691914 -0.1182781 -0.08583126
-0.015940528 -0.162871 -0.0070227 -0.021687115 -0.00047661897 -0.18540238 -0.016179912 0.18463211
-0.20478408 -0.025875172 -0.03877577 -0.16926645 0.069696724 0.09124403 -0.08309791 -0.07635563
0.2429361 -0.025929607 0.115295075 0.11173386 -0.07159696 -0.009168789 -0.018392961 -0.01744727
0.025459133 -0.055194262 -0.03293847 0.028583666 0.009268005 0.026322676 0.02928131 0.023483109
0.006628317 -0.06562353 -0.1097971 0.1232742 0.062001053 0.01078844 0.07790661 0.046796262
0.0477719 0.16810028 0.012161538 -0.037049446 -0.036100417 -0.09451951 0.04421378 -0.01831693
-0.10953424 -0.05680574 0.122202836 -0.06225958 0.00068436214 0.02003311 -0.1074688 -0.07377677
-0.07390252 -0.07639787 -0.074107386 -0.019542912 0.07180029 -0.08313258 0.003881319 -0.016366484
-0.037496302 -0.028182043 -0.13264959 0.07262319 -0.0943395 0.07362002 -0.026863374 -0.0072890776
-0.073989 0.045465954 -0.06649708 0.068177015 0.043275125 -0.0019847967 -0.025439484 -0.0042930217
0.041340917 0.012279707 -0.085604146 -0.06430051 -0.082035385 0.009711152 -0.039984923 0.012816993
-0.043501202 0.0408937 -0.016285835 0.02190101 -0.00030704992 -0.08185055 -0.038849805 -0.047481086
-0.058869243 0.05559257 -0.004871321 -0.0292405 0.0353368 0.0949749 -0.06449524 -0.068208374
0.054095145 0.016888745 -0.12403476 -0.08035364 -0.03658054 -0.09984342 0.020637322 0.0083496235
-0.030212153 -0.025537623 -0.007499983 0.09804287 -0.02000406 0.0074735065 -0.057857804 -0.027567565
0.0052825557 0.09212692 -0.08686428 0.043617856 0.13885544 -0.13107635 0.04847604 0.036320742
-0.076840445 -0.0014051489 -0.0138040045 -0.10562859 -0.019905264 0.025247753 0.019533899 0.030405361
-0.012513117 -0.0046983976 0.08565191 -0.05038456 -0.05427499 -0.029402416 -0.08095497 0.08009009
-0.012347361 -0.06667686 0.03215803 -0.061405595 -0.010462771 0.061271824 -0.0231293 -0.058284022
-0.0136088375 0.1416242 0.012676134 0.20193537 -0.024426762 -0.060546592 -0.11976318 0.046318695
0.23123702 0.2005103 -0.25603032 -0.3971367 0.1493184 -0.21120955 -0.12416776 0.09956115
-0.38431913 -0.02664098 -0.1248547 -0.20904586 -0.12627535 0.09056336 0.0060912166 -0.09855652
0.058481794 0.024053738 -0.17214106 0.048374243 0.043665893 0.2292504 0.062291678 -0.013309714
0.07407525 -0.063500844 -0.19877777 0.042233035 -0.10823704 -0.1707643 0.11532644 0.08745834
0.071133584 0.2419365 0.00094611873 0.11045346 0.06644121 -0.2444521 0.20238109 0.018522076
0.07449647 0.06706988 -0.009970057 -0.15320876 -0.07696833 0.018985443 -0.0037184134 0.03548663
0.047089294 0.35737693 -0.007424013 -0.06382922 -0.04895358 0.050877318 -0.024913158 0.0018849705
-0.072051965 -0.07584568 -0.12535276 -0.028873542 0.029775798 0.036903158 -0.095257364 -0.004870179
00000000: 92a2 d9bc a90b a5bd 0d83 b73c 939a d73d
00000010: 93a1 bdbd 6c6a 68bd f231 a3bd c44a 573e
00000020: c70a 1abd c205 e3bd f8fc 4d3e 8a34 f63c
00000030: 7a98 103b 1b36 963e 1b99 c1bd e1ea 65bc
00000040: 3816 9cbd d4fb 9dbc 2662 f13d bd5f 5b3d
00000050: 1835 01bd c1b8 96bc e332 393d e035 19bd
00000060: 677c f93d 98ea a3ba 3dd6 1fbd 00fe 013e
00000070: d3c4 6b3d 69af 20be ca3b f2bd 4dc8 afbd
00000080: b695 82bc a8c7 26be ad1e e6bb 2da9 b1bc
00000090: b7e2 f9b9 1fda 3dbe bc8b 84bc 3310 3d3e
000000a0: ebb2 51be 2bf8 d3bc 58d3 1ebd 2f54 2dbe
000000b0: 28bd 8e3d 26de ba3d 3d2f aabd 5760 9cbd
000000c0: 3ec4 783e 546a d4bc d31f ec3d b9d4 e43d
000000d0: 6da1 92bd b038 16bc d6ac 96bc 94ed 8ebc
000000e0: ac8f d03c 6113 62bd 7dea 06bd 4b28 ea3c
000000f0: d5d8 173c a7a2 d73c 5cdf ef3c a65f c03c
00000100: 5a32 d93b a165 86bd 4ddd e0bd 2f77 fc3d
00000110: d1f4 7d3d ffc1 303c 808d 9f3d 70ad 3f3d
00000120: 78ac 433d 7b22 2c3e 3041 473c 29c1 17bd
00000130: 08de 13bd 7293 c1bd 8219 353d 630d 96bc
00000140: 7d53 e0bd 23ad 68bd 7b45 fa3d e703 7fbd
00000150: c466 333a 7a1c a43c 9a18 dcbd 4618 97bd
00000160: 345a 97bd 7d76 9cbd 9dc5 97bd 7518 a0bc
00000170: 080c 933d 6a41 aabd ba5d 7e3b 0113 86bc
00000180: b995 19bd 07de e6bc 4bd5 07be 78bb 943d
00000190: 1135 c1bd 18c6 963d 9410 dcbc 37d9 eebb
000001a0: 8b87 97bd 823a 3a3d 9f2f 88bd 64a0 8b3d
000001b0: 4241 313d 5d13 02bb 7766 d0bc 7aac 8cbb
000001c0: 1855 293d d330 493c 3a51 afbd fcaf 83bd
000001d0: 2b02 a8bd 861b 1f3c 3bc7 23bd 5dfe 513c
000001e0: 512e 32bd 2780 273d df69 85bc bf69 b33c
000001f0: 8bfb a0b9 43a1 a7bd f920 1fbd 877b 42bd
00000200: e020 71bd 09b5 633d 9a9f 9fbb c689 efbc
00000210: 52bd 103d 3382 c23d 1516 84bd d5b0 8bbd
00000220: df92 5d3d 445a 8a3c f005 febd 7390 a4bd
00000230: 7ad5 15bd b57a ccbd 9a0f a93c dccc 083c
00000240: 7a7f f7bc 4734 d1bc 6bc2 f5bb b3ca c83d
00000250: 8edf a3bc 51e4 f43b 4efc 6cbd 60d5 e1bc
00000260: 4a19 ad3b 0aad bc3d e6e5 b1bd a3a8 323d
00000270: 1f30 0e3e e138 06be d08e 463d 0fc5 143d
00000280: 865e 9dbd f92c b8ba 312a 62bc cd53 d8bd
00000290: 5d10 a3bc 60d4 ce3c 8e05 a03c aa14 f93c
000002a0: d103 4dbc 04f5 99bb 456a af3d 0a60 4ebd
000002b0: 744f 5ebd 56dd f0bc b8cb a5bd 4606 a43d
000002c0: 964c 4abc e18d 88bd 23b8 033d 6f84 7bbd
000002d0: 0b6c 2bbc 2af8 7a3d a879 bdbc 3abb 6ebd
000002e0: 9af7 5ebc ef05 113e 8faf 4f3c 25c8 4e3e
000002f0: a21a c8bc b4ff 77bd 6646 f5bd acb8 3d3d
00000300: 66c9 6c3e 9252 4d3e 6816 83be 8055 cbbe
00000310: ece6 183e 5147 58be ab4b febd b7e6 cb3d
00000320: 7ac5 c4be 2f3e dabc d2b3 ffbd 1e10 56be
00000330: 534e 01be 4879 b93d d498 c73b 00d8 c9bd
00000340: 9b8a 6f3d 580c c53c bf45 30be 1224 463d
00000350: 02db 323d 9ec0 6a3e 8f25 7f3d fd10 5abc
00000360: c4b4 973d bb0c 82bd 668c 4bbe 8cfc 2c3d
00000370: 62ab ddbd d6dc 2ebe 4530 ec3d 5c1d b33d
00000380: 7cae 913d 34be 773e f404 783a 6c35 e23d
00000390: 5412 883d a751 7abe fd3c 4f3e 9cbb 973c
000003a0: 9b91 983d ef5b 893d 7359 23bc c2e2 1cbe
000003b0: 92a1 9dbd 5c87 9b3c a0b0 73bb 6e5a 113d
000003c0: b4e0 403d 1cfa b63e 2345 f3bb e5b8 82bd
000003d0: 8d83 48bd bc64 503d ae16 ccbc 1d11 f73a
000003e0: fb8f 93bd fb54 9bbd 795c 00be 3588 ecbc
000003f0: 60ec f33c c427 173d 4b16 c3bd 0696 9fbb

i2h.bias f4 [128]
-0.06800432 -0.12500772 0.123460665 -0.07447231 -0.05613276 0.0015785317 0.042370267 -0.05369662
0.077634156 0.0835597 -0.00684732 -0.06476525 0.05199899 -0.0068081985 0.049128175 0.06000373
0.10477738 -0.043436393 -0.06147848 0.14070399 -0.020701155 -0.036447875 0.02411522 -0.12057605
-0.037398312 0.0018519646 -0.005722368 0.022389589 0.06369852 0.001897537 0.037701804 0.027969878
0.07173503 -0.012131154 -0.007987811 -0.027553469 -0.115628295 -0.13187286 -0.040665906 0.035543963
0.043832082 -0.061072204 -0.11783197 -0.03445922 0.063737005 -0.002741753 0.0145397475 0.074628934
-0.16599213 0.01771878 -0.046300158 0.086728334 0.13409945 0.15990172 -0.07167934 -0.032556657
0.12509803 0.03931232 -0.037267976 0.060410526 -0.106320366 0.024110585 0.18197455 -0.088243015
-0.0034804607 0.023052188 -0.04402755 0.004715834 -0.000818752 -0.036538105 0.08457255 -0.043846976
-0.09369895 -0.08400238 0.008902737 0.07695312 0.04473945 0.019956809 -0.046379026 -0.0659105
-0.066463456 -0.06398066 -0.027483402 -0.08211574 -0.1309002 -0.038717687 0.14104865 0.013235752
0.01695577 0.10247666 -0.041612692 -0.09255179 0.18117689 -0.056441896 0.0051312107 0.01827517
-0.0012312598 0.021862859 0.120886356 0.0061621806 -0.0320366 -0.022245485 0.042904075 -0.1631179
0.06280563 -0.051150136 -0.01785421 -0.08304057 -0.06145312 0.05857545 -0.0042504217 -0.01577937
0.0745325 -0.12468838 -0.014118498 -0.02136618 -0.0710141 0.010321437 -0.13240552 0.15494446
0.037466634 -0.024990804 -0.0827507 -0.06946481 -0.038273346 -0.020720169 -0.11016938 0.050795697
00000000: d945 8bbd 0602 00be f2d8 fc3d f084 98bd
00000010: 77eb 65bd bce6 ce3a 728c 2d3d fdf0 5bbd
00000020: a8fe 9e3d 5921 ab3d 7c5f e0bb a5a3 84bd
00000030: e5fc 543d 4f17 dfbb a03a 493d 79c6 753d
00000040: 8695 d63d 5cea 31bd dcd0 7bbd b514 103e
00000050: 7895 a9bc 5e4a 15bd 488d c53c 93f0 f6bd
00000060: f92e 19bd 9fbd f23a b482 bbbb 5f6a b73c
00000070: 5f74 823d c7b6 f83a 356d 1a3d 1621 e53c
00000080: d1e9 923d bfc1 46bc 4fdf 02bc d0b7 e1bc
00000090: 87ce ecbd ae09 07be 4b91 26bd 8c96 113d
000000a0: 4589 333d d926 7abd e351 f1bd 1c25 0dbd
000000b0: 8c88 823d fbae 33bb 1f38 6e3c 0ed7 983d
000000c0: d7f9 29be fa26 913c 3ca5 3dbd a09e b13d
000000d0: 5e51 093e 47bd 233e 9ecc 92bd 215a 05bd
000000e0: b319 003e f505 213d 4ea6 18bd 0771 773d
000000f0: 7ebe d9bd 9083 c53c 8957 3a3e c1b8 b4bd
00000100: 7118 64bb f1d7 bc3c 3b56 34bd 4887 9a3b
00000110: 84a1 56ba fba8 15bd 6034 ad3d e398 33bd
00000120: 3ce5 bfbd 7109 acbd c9dc 113c 9999 9d3d
00000130: b740 373d 767c a33c eff7 3dbd 16fc 86bd
00000140: fe1d 88bd 4b08 83bd df24 e1bc 4c2c a8bd
00000150: b40a 06be 7096 1ebd 0f6f 103e c4da 583c
00000160: d4e6 8a3c 48df d13d 1272 2abd cb8b bdbd
00000170: 6f86 393e 9e2f 67bd b723 a83b cfb5 953c
00000180: 3962 a1ba bd19 b33c 4493 f73d 1eec c93b
00000190: cf38 03bd 2a3c b6bc 2fbc 2f3d 6108 27be
000001a0: 3da0 803d ce82 51bd fe42 92bc 2d11 aabd
000001b0: 44b6 7bbd d0ec 6f3d 1f47 8bbb bd43 81bc
000001c0: 7fa4 983d 9f5c ffbd 4651 67bc 2108 afbc
000001d0: d76f 91bd 3f1b 293c 5095 07be c3a9 1e3e
000001e0: 9d76 193d 84b9 ccbc 3379 a9bd 9143 8ebd
000001f0: 83c4 1cbd 58bd a9bc 7ca0 e1bd 260f 503d
